…
[10-25 03:09:21] (zero/mntp/models/mntp.py, line 112)=> 
[constructor]  ==== flash_if_available=True (16/16), fused_if_available=True (fusing_add_ln=0/16, fusing_mlp=0/16) ==== 
    [MNTP config ] embed_dim=1024, num_heads=16, depth=16, mlp_ratio=4.0
    [drop ratios ] drop_rate=0.0, attn_drop_rate=0.0, drop_path_rate=0.0666667 (tensor([… ))

[10-25 03:09:21] (zero/mntp/models/mntp.py, line 135)=> torch.Size([1, 1, 680, 680])
[10-25 03:09:21] (zero/mntp/models/mntp.py, line 340)=> [init_weights] VAR with init_std=0.0180422
[10-25 03:09:24] (/mntp_zero/mntp/train.py, line 128)=> [INIT] VAR model = VAR(
  drop_path_rate=0.0666667
  (word_embed): Linear(in_features=32, out_features=1024, bias=True)
  (class_emb): Embedding(1001, 1024)
  (lvl_embed): TimestepEmbedder(
    (mlp): Sequential(
      (0): Linear(in_features=256, out_features=1024, bias=True)
      (1): SiLU()
      (2): Linear(in_features=1024, out_features=1024, bias=True)
    )
  )
  (shared_ada_lin): Identity()
  (blocks): ModuleList(
    (0): LlamaAdaLNSelfAttn(
      shared_aln=False
      (drop_path): Identity()
      (attn): LlamaAttention(
        using_flash=True, using_xform=False, attn_l2_norm=True
        (rotary_emb): LlamaRotaryEmbedding()
        (qkv_proj): Linear(in_features=1024, out_features=3072, bias=False)
        (proj): Linear(in_features=1024, out_features=1024, bias=True)
        (proj_drop): Identity()
      )
      (ffn): LlamaMLP(
        (gate_proj): Linear(in_features=1024, out_features=2816, bias=False)
        (up_proj): Linear(in_features=1024, out_features=2816, bias=False)
        (down_proj): Linear(in_features=2816, out_features=1024, bias=False)
        (act_fn): SiLU()
      )
      (ln_wo_grad): RMSNorm()
      (ada_lin): Sequential(
        (0): SiLU()
        (1): Linear(in_features=1024, out_features=6144, bias=True)
      )
    )
    (1-15): 15 x LlamaAdaLNSelfAttn(
      shared_aln=False
      (drop_path): DropPath((drop_prob=...))
      (attn): LlamaAttention(
        using_flash=True, using_xform=False, attn_l2_norm=True
        (rotary_emb): LlamaRotaryEmbedding()
        (qkv_proj): Linear(in_features=1024, out_features=3072, bias=False)
        (proj): Linear(in_features=1024, out_features=1024, bias=True)
        (proj_drop): Identity()
      )
      (ffn): LlamaMLP(
        (gate_proj): Linear(in_features=1024, out_features=2816, bias=False)
        (up_proj): Linear(in_features=1024, out_features=2816, bias=False)
        (down_proj): Linear(in_features=2816, out_features=1024, bias=False)
        (act_fn): SiLU()
      )
      (ln_wo_grad): RMSNorm()
      (ada_lin): Sequential(
        (0): SiLU()
        (1): Linear(in_features=1024, out_features=6144, bias=True)
      )
    )
  )
  (head_nm): AdaLNBeforeHead(
    (ln_wo_grad): RMSNorm()
    (ada_lin): Sequential(
      (0): SiLU()
      (1): Linear(in_features=1024, out_features=2048, bias=True)
    )
  )
  (head): Linear(in_features=1024, out_features=4096, bias=True)
  (context_pool): ContextAttentivePool(
    (ca): CrossAttention(
      Cq=1024, Ckv=1024, cos_attn=False
      (mat_kv): Linear(in_features=1024, out_features=2048, bias=False)
      (proj): Linear(in_features=1024, out_features=1024, bias=True)
      (proj_drop): Identity()
    )
  )
  (head_context): Linear(in_features=2048, out_features=1024, bias=True)
  (norm_x): LayerNorm((1024,), eps=1e-05, elementwise_affine=True)
  (norm_cond): LayerNorm((1024,), eps=1e-05, elementwise_affine=True)
)


[10-25 03:09:24] (/mntp_zero/mntp/train.py, line 130)=> [INIT][#para] VAE=108.95, VAE.enc=44.11, VAE.dec=64.65, VAE.quant=0.17
[10-25 03:09:24] (/mntp_zero/mntp/train.py, line 131)=> [INIT][#para] VAR=320.27


[10-25 03:09:24] (mntp/utils/lr_control.py, line  99)=> [get_param_groups] param_groups = 
{ 'D': { 'lr_sc': 1.0,
         'params': "('word_embed.weight, class_emb.weight, blocks.0.attn.qkv_proj.weight, blocks.0.attn.proj.weight, blocks.0.ffn.gate_proj.weight, blocks.0.ffn.up_proj.weight, blocks.0.ffn.down_proj.weight, '\n"
…
